…
ationPipeline\nfrom transformers import AutoModelForCausalLM, AutoTokenizer\n\ntokenizer = AutoTokenizer.from_pretrained(\"h2oai/h2ogpt-oasst1-512-20b\", padding_side=\"left\")\nmodel = AutoModelForCausalLM.from_pretrained(\"h2oai/h2ogpt-oasst1-512-20b\", torch_dtype=torch.bfloat16, device_map=\"auto\")\ngenerate_text = H2OTextGenerationPipeline(model=model, tokenizer=tokenizer)\n\nres = generate_text(\"Why is drinking water so healthy?\", max_new_tokens=100)\nprint(res[0][\"generated_text\"])\n```\n\n## Model Architecture\n\n```\nGPTNeoXForCausalLM(\n  (gpt_neox): GPTNeoXModel(\n    (embed_in): Embedding(50432, 6144)\n    (layers): ModuleList(\n      (0-43): 44 x GPTNeoXLayer(\n        (input_layernorm): LayerNorm((6144,), eps=1e-05, elementwise_affine=True)\n        (post_attention_layernorm): LayerNorm((6144,), eps=1e-05, elementwise_affine=True)\n        (attention): GPTNeoXAttention(\n          (rotary_emb): RotaryEmbedding()\n          (query_key_value): Linear(in_features=6144, out_features=18432, bias=True)\n          (dense): Linear(in_features=6144, out_features=6144, bias=True)\n        )\n        (mlp): GPTNeoXMLP(\n          (dense_h_to_4h): Linear(in_features=6144, out_features=24576, bias=True)\n          (dense_4h_to_h): Linear(in_features=24576, out_features=6144, bias=True)\n          (act): FastGELUActivation()\n        )\n      )\n    )\n    (final_layer_norm): LayerNorm((6144,), eps=1e-05, elementwise_affine=True)\n  )\n  (embed_out): Linear(in_features=6144, out_features=50432, bias=False)\n)\n```\n\n## Model Configuration\n\n```json\nGPTNeoXConfig {\n  \"_name_or_path\": \"h2oai/h2ogpt-oasst1-512-20b\",\n  \"architectures\": [\n    \"GPTNeoXForCausalLM\"\n  ],\n  \"attention_probs_dropout_prob\": 0,\n  \"bos_token_id\": 0,\n  \"custom_pipeline\": {\n    \"text-generation\": {\n      \"impl\": \"h2oai_pipeline.H2OTextGenerationPipeli
…
formers import AutoModelForCausalLM, AutoTokenizer\n\ntokenizer = AutoTokenizer.from_pretrained(\"h2oai/h2ogpt-oasst1-512-12b\", padding_side=\"left\")\nmodel = AutoModelForCausalLM.from_pretrained(\"h2oai/h2ogpt-oasst1-512-12b\", torch_dtype=torch.bfloat16, device_map=\"auto\")\ngenerate_text = H2OTextGenerationPipeline(model=model, tokenizer=tokenizer, prompt_type='human_bot')\n\nres = generate_text(\"Why is drinking water so healthy?\", max_new_tokens=100)\nprint(res[0][\"generated_text\"])\n```\n\n## Model Architecture\n\n```\nGPTNeoXForCausalLM(\n  (gpt_neox): GPTNeoXModel(\n    (embed_in): Embedding(50688, 5120)\n    (layers): ModuleList(\n      (0-35): 36 x GPTNeoXLayer(\n        (input_layernorm): LayerNorm((5120,), eps=1e-05, elementwise_affine=True)\n        (post_attention_layernorm): LayerNorm((5120,), eps=1e-05, elementwise_affine=True)\n        (attention): GPTNeoXAttention(\n          (rotary_emb): RotaryEmbedding()\n          (query_key_value): Linear(in_features=5120, out_features=15360, bias=True)\n          (dense): Linear(in_features=5120, out_features=5120, bias=True)\n        )\n        (mlp): GPTNeoXMLP(\n          (dense_h_to_4h): Linear(in_features=5120, out_features=20480, bias=True)\n          (dense_4h_to_h): Linear(in_features=20480, out_features=5120, bias=True)\n          (act): GELUActivation()\n        )\n      )\n    )\n    (final_layer_norm): LayerNorm((5120,), eps=1e-05, elementwise_affine=True)\n  )\n  (embed_out): Linear(in_features=5120, out_features=50688, bias=False)\n)\n```\n\n## Model Configuration\n\n```json\nGPTNeoXConfig {\n  \"_name_or_path\": \"h2oai/h2ogpt-oasst1-512-12b\",\n  \"architectures\": [\n    \"GPTNeoXForCausalLM\"\n  ],\n  \"bos_token_id\": 0,\n  \"classifier_dropout\": 0.1,\n  \"custom_pipelines\": {\n    \"text-generation\": {\n      \"impl\": \"h2oai_pipeline.H2OTextGenerationPipeline\",\n
…
port AutoModelForCausalLM, AutoTokenizer\n\ntokenizer = AutoTokenizer.from_pretrained(\"h2oai/h2ogpt-oig-oasst1-512-6_9b\", padding_side=\"left\")\nmodel = AutoModelForCausalLM.from_pretrained(\"h2oai/h2ogpt-oig-oasst1-512-6_9b\", torch_dtype=torch.bfloat16, device_map=\"auto\")\ngenerate_text = H2OTextGenerationPipeline(model=model, tokenizer=tokenizer, prompt_type='human_bot')\n\nres = generate_text(\"Why is drinking water so healthy?\", max_new_tokens=100)\nprint(res[0][\"generated_text\"])\n```\n\n## Model Architecture\n\n```\nGPTNeoXForCausalLM(\n  (gpt_neox): GPTNeoXModel(\n    (embed_in): Embedding(50432, 4096)\n    (layers): ModuleList(\n      (0-31): 32 x GPTNeoXLayer(\n        (input_layernorm): LayerNorm((4096,), eps=1e-05, elementwise_affine=True)\n        (post_attention_layernorm): LayerNorm((4096,), eps=1e-05, elementwise_affine=True)\n        (attention): GPTNeoXAttention(\n          (rotary_emb): RotaryEmbedding()\n          (query_key_value): Linear(in_features=4096, out_features=12288, bias=True)\n          (dense): Linear(in_features=4096, out_features=4096, bias=True)\n        )\n        (mlp): GPTNeoXMLP(\n          (dense_h_to_4h): Linear(in_features=4096, out_features=16384, bias=True)\n          (dense_4h_to_h): Linear(in_features=16384, out_features=4096, bias=True)\n          (act): GELUActivation()\n        )\n      )\n    )\n    (final_layer_norm): LayerNorm((4096,), eps=1e-05, elementwise_affine=True)\n  )\n  (embed_out): Linear(in_features=4096, out_features=50432, bias=False)\n)\n```\n\n## Model Configuration\n\n```json\nGPTNeoXConfig {\n  \"_name_or_path\": \"h2oai/h2ogpt-oig-oasst1-512-6_9b\",\n  \"architectures\": [\n    \"GPTNeoXForCausalLM\"\n  ],\n  \"bos_token_id\": 0,\n  \"custom_pipeline\": {\n    \"text-generation\": {\n      \"impl\": \"h2oai_pipeline.H2OTextGenerationPipeline\",\n      \"pt\": \"AutoModelFor
…
import AutoModelForCausalLM, AutoTokenizer\n\ntokenizer = AutoTokenizer.from_pretrained(\"h2oai/h2ogpt-oasst1-falcon-40b\", padding_side=\"left\")\nmodel = AutoModelForCausalLM.from_pretrained(\"h2oai/h2ogpt-oasst1-falcon-40b\", torch_dtype=torch.bfloat16, device_map=\"auto\")\ngenerate_text = H2OTextGenerationPipeline(model=model, tokenizer=tokenizer, prompt_type=\"human_bot\")\n\nres = generate_text(\"Why is drinking water so healthy?\", max_new_tokens=100)\nprint(res[0][\"generated_text\"])\n```\n\n## Model Architecture\n\n```\nRWForCausalLM(\n  (transformer): RWModel(\n    (word_embeddings): Embedding(65024, 8192)\n    (h): ModuleList(\n      (0-59): 60 x DecoderLayer(\n        (ln_attn): LayerNorm((8192,), eps=1e-05, elementwise_affine=True)\n        (ln_mlp): LayerNorm((8192,), eps=1e-05, elementwise_affine=True)\n        (self_attention): Attention(\n          (maybe_rotary): RotaryEmbedding()\n          (query_key_value): Linear(in_features=8192, out_features=9216, bias=False)\n          (dense): Linear(in_features=8192, out_features=8192, bias=False)\n          (attention_dropout): Dropout(p=0.0, inplace=False)\n        )\n        (mlp): MLP(\n          (dense_h_to_4h): Linear(in_features=8192, out_features=32768, bias=False)\n          (act): GELU(approximate='none')\n          (dense_4h_to_h): Linear(in_features=32768, out_features=8192, bias=False)\n        )\n      )\n    )\n    (ln_f): LayerNorm((8192,), eps=1e-05, elementwise_affine=True)\n  )\n  (lm_head): Linear(in_features=8192, out_features=65024, bias=False)\n)\n```\n\n## Model Configuration\n\n```json\nRWConfig {\n  \"_name_or_path\": \"h2oai/h2ogpt-oasst1-falcon-40b\",\n  \"alibi\": false,\n  \"apply_residual_connection_post_layernorm\": false,\n  \"architectures\": [\n    \"RWForCausalLM\"\n  ],\n  \"attention_dropout\": 0.0,\n  \"auto_map\": {\n    \"AutoConfig\": \"tiiuae/falcon-40b--configuration
…
delForCausalLM, AutoTokenizer\n\ntokenizer = AutoTokenizer.from_pretrained(\"h2oai/h2ogpt-research-oasst1-llama-65b\", padding_side=\"left\")\nmodel = AutoModelForCausalLM.from_pretrained(\"h2oai/h2ogpt-research-oasst1-llama-65b\", torch_dtype=torch.bfloat16, device_map=\"auto\")\ngenerate_text = H2OTextGenerationPipeline(model=model, tokenizer=tokenizer, prompt_type=\"human_bot\")\n\nres = generate_text(\"Why is drinking water so healthy?\", max_new_tokens=100)\nprint(res[0][\"generated_text\"])\n```\n\n## Model Architecture\n\n```\nLlamaForCausalLM(\n  (model): LlamaModel(\n    (embed_tokens): Embedding(32000, 8192, padding_idx=31999)\n    (layers): ModuleList(\n      (0-79): 80 x LlamaDecoderLayer(\n        (self_attn): LlamaAttention(\n          (q_proj): Linear(in_features=8192, out_features=8192, bias=False)\n          (k_proj): Linear(in_features=8192, out_features=8192, bias=False)\n          (v_proj): Linear(in_features=8192, out_features=8192, bias=False)\n          (o_proj): Linear(in_features=8192, out_features=8192, bias=False)\n          (rotary_emb): LlamaRotaryEmbedding()\n        )\n        (mlp): LlamaMLP(\n          (gate_proj): Linear(in_features=8192, out_features=22016, bias=False)\n          (down_proj): Linear(in_features=22016, out_features=8192, bias=False)\n          (up_proj): Linear(in_features=8192, out_features=22016, bias=False)\n          (act_fn): SiLUActivation()\n        )\n        (input_layernorm): LlamaRMSNorm()\n        (post_attention_layernorm): LlamaRMSNorm()\n      )\n    )\n    (norm): LlamaRMSNorm()\n  )\n  (lm_head): Linear(in_features=8192, out_features=32000, bias=False)\n)\n```\n\n## Model Configuration\n\n```json\nLlamaConfig {\n  \"_name_or_path\": \"h2oai/h2ogpt-research-oasst1-llama-65b\",\n  \"architectures\": [\n    \"LlamaForCausalLM\"\n  ],\n  \"bos_token_id\": 0,\n  \"custom_pipelines\": {\n    \"text-generation\": {\n      \"impl\": \"h2oai_pipeline.H2OTextGenerationPipeline\",\n      \"pt\": \"AutoModel
…
