…
 = tokenizer(prompt, return_tensors=\"pt\", add_special_tokens=False).to(\"cuda\")\n\n# generate configuration can be modified to your needs\ntokens = model.generate(\n    **inputs,\n    min_new_tokens=2,\n    max_new_tokens=1024,\n    do_sample=False,\n    num_beams=1,\n    temperature=float(0.3),\n    repetition_penalty=float(1.2),\n    renormalize_logits=True\n)[0]\n\ntokens = tokens[inputs[\"input_ids\"].shape[1]:]\nanswer = tokenizer.decode(tokens, skip_special_tokens=True)\nprint(answer)\n```\n\n## Model Architecture\n\n```\nRWForCausalLM(\n  (transformer): RWModel(\n    (word_embeddings): Embedding(65024, 4544)\n    (h): ModuleList(\n      (0-31): 32 x DecoderLayer(\n        (input_layernorm): LayerNorm((4544,), eps=1e-05, elementwise_affine=True)\n        (self_attention): Attention(\n          (maybe_rotary): RotaryEmbedding()\n          (query_key_value): Linear(in_features=4544, out_features=4672, bias=False)\n          (dense): Linear(in_features=4544, out_features=4544, bias=False)\n          (attention_dropout): Dropout(p=0.0, inplace=False)\n        )\n        (mlp): MLP(\n          (dense_h_to_4h): Linear(in_features=4544, out_features=18176, bias=False)\n          (act): GELU(approximate='none')\n          (dense_4h_to_h): Linear(in_features=18176, out_features=4544, bias=False)\n        )\n      )\n    )\n    (ln_f): LayerNorm((4544,), eps=1e-05, elementwise_affine=True)\n  )\n  (lm_head): Linear(in_features=4544, out_features=65024, bias=False)\n)\n```\n\n## Model Configuration\n\nThis model was trained using H2O LLM Studio and with the configuration in [cfg.yaml](cfg.yaml). Visit [H2O LLM Studio](https://github.com/h2oai/h2o-llmstudio) to learn how to train your own large language models.\n\n\n## Disclaimer\n\nPlease read this disclaimer carefully before using the large language model pr
…
l.generate(\n    input_ids=inputs[\"input_ids\"],\n    attention_mask=inputs[\"attention_mask\"],\n    min_new_tokens=2,\n    max_new_tokens=256,\n)[0]\n\ntokens = tokens[inputs[\"input_ids\"].shape[1]:]\nanswer = tokenizer.decode(tokens, skip_special_tokens=True)\nprint(answer)\n```\n\n## Quantization and sharding\n\nYou can load the models using quantization by specifying ```load_in_8bit=True``` or ```load_in_4bit=True```. Also, sharding on multiple GPUs is possible by setting ```device_map=auto```.\n\n## Model Architecture\n\n```\nLlamaForCausalLM(\n  (model): LlamaModel(\n    (embed_tokens): Embedding(32000, 3840, padding_idx=0)\n    (layers): ModuleList(\n      (0-23): 24 x LlamaDecoderLayer(\n        (self_attn): LlamaSdpaAttention(\n          (q_proj): Linear(in_features=3840, out_features=3840, bias=False)\n          (k_proj): Linear(in_features=3840, out_features=960, bias=False)\n          (v_proj): Linear(in_features=3840, out_features=960, bias=False)\n          (o_proj): Linear(in_features=3840, out_features=3840, bias=False)\n          (rotary_emb): LlamaRotaryEmbedding()\n        )\n        (mlp): LlamaMLP(\n          (gate_proj): Linear(in_features=3840, out_features=10240, bias=False)\n          (up_proj): Linear(in_features=3840, out_features=10240, bias=False)\n          (down_proj): Linear(in_features=10240, out_features=3840, bias=False)\n          (act_fn): SiLU()\n        )\n        (input_layernorm): LlamaRMSNorm()\n        (post_attention_layernorm): LlamaRMSNorm()\n      )\n    )\n    (norm): LlamaRMSNorm()\n  )\n  (lm_head): Linear(in_features=3840, out_features=32000, bias=False)\n)\n```\n\n## Benchmarks\n\n### 🤗 Open LLM Leaderboard v1\n\n| Benchmark     |   acc_n  |\n|:--------------|:--------:|\n| Average       |   61.42  |\n| ARC-challenge |   58.96  |\n| Hellaswag     |   80.36  |\n| MMLU          |   54.74  |\n| TruthfulQA    |   47.79  |\n| Winogrande    |   76.48 |\n| GSM8K         |   50.18  |\n\n### MT-Bench\n\n``
…
ize=False,\n    add_generation_prompt=True,\n)\nres = pipe(\n    prompt,\n    max_new_tokens=256,\n)\nprint(res[0][\"generated_text\"])\n```\n\nThis will apply and run the correct prompt format out of the box:\n\n```\n<|prompt|>Why is drinking water so healthy?</s><|answer|>\n```\n\n## Quantization and sharding\n\nYou can load the models using quantization by specifying ```load_in_8bit=True``` or ```load_in_4bit=True```. Also, sharding on multiple GPUs is possible by setting ```device_map=auto```.\n\n## Model Architecture\n\n```\nMistralForCausalLM(\n  (model): MistralModel(\n    (embed_tokens): Embedding(32000, 2560, padding_idx=0)\n    (layers): ModuleList(\n      (0-23): 24 x MistralDecoderLayer(\n        (self_attn): MistralAttention(\n          (q_proj): Linear(in_features=2560, out_features=2560, bias=False)\n          (k_proj): Linear(in_features=2560, out_features=640, bias=False)\n          (v_proj): Linear(in_features=2560, out_features=640, bias=False)\n          (o_proj): Linear(in_features=2560, out_features=2560, bias=False)\n          (rotary_emb): MistralRotaryEmbedding()\n        )\n        (mlp): MistralMLP(\n          (gate_proj): Linear(in_features=2560, out_features=6912, bias=False)\n          (up_proj): Linear(in_features=2560, out_features=6912, bias=False)\n          (down_proj): Linear(in_features=6912, out_features=2560, bias=False)\n          (act_fn): SiLU()\n        )\n        (input_layernorm): MistralRMSNorm()\n        (post_attention_layernorm): MistralRMSNorm()\n      )\n    )\n    (norm): MistralRMSNorm()\n  )\n  (lm_head): Linear(in_features=2560, out_features=32000, bias=False)\n)\n```\n\n## Benchmarks\n\n### 🤗 Open LLM Leaderboard\n\n| Benchmark     |   acc_n  |\n|:--------------|:--------:|\n| Average       |   48.44  |\n| ARC-challenge |   43.43  |\n| Hellaswag     |   73.54  |\n| MMLU          |   37.77  |\n| TruthfulQA    |   39.96  |\n| Winogrande    |   69.77  |\n| GSM8K         |   26.16  |\n\n### MT-Bench\n\n```\
…
  acc_n  |\n|:--------------|:--------:|\n| ARC-easy      |   67.51  |\n| ARC-challenge |   39.25  |\n| BoolQ         |   77.89  |\n| Hellaswag     |   67.60  |\n| OpenBookQA    |   39.20  |\n| PiQA          |   76.71  |\n| TriviaQA      |   36.29  |\n| Winogrande    |   65.35  |\n\n## Quantization and sharding\n\nYou can load the models using quantization by specifying ```load_in_8bit=True``` or ```load_in_4bit=True```. Also, sharding on multiple GPUs is possible by setting ```device_map=auto```.\n\n## Model Architecture\n\n```\nMistralForCausalLM(\n  (model): MistralModel(\n    (embed_tokens): Embedding(32000, 2560, padding_idx=0)\n    (layers): ModuleList(\n      (0-23): 24 x MistralDecoderLayer(\n        (self_attn): MistralAttention(\n          (q_proj): Linear(in_features=2560, out_features=2560, bias=False)\n          (k_proj): Linear(in_features=2560, out_features=640, bias=False)\n          (v_proj): Linear(in_features=2560, out_features=640, bias=False)\n          (o_proj): Linear(in_features=2560, out_features=2560, bias=False)\n          (rotary_emb): MistralRotaryEmbedding()\n        )\n        (mlp): MistralMLP(\n          (gate_proj): Linear(in_features=2560, out_features=6912, bias=False)\n          (up_proj): Linear(in_features=2560, out_features=6912, bias=False)\n          (down_proj): Linear(in_features=6912, out_features=2560, bias=False)\n          (act_fn): SiLU()\n        )\n        (input_layernorm): MistralRMSNorm()\n        (post_attention_layernorm): MistralRMSNorm()\n      )\n    )\n    (norm): MistralRMSNorm()\n  )\n  (lm_head): Linear(in_features=2560, out_features=32000, bias=False)\n)\n```\n\n## Model Configuration\n\nThis model was trained using H2O LLM Studio and with the configuration in [cfg.yaml](cfg.yaml). Visit [H2O LLM Studio](https://github.com/h2oai/h2o-llmstudio) to learn how to train your own large language models.\n\n\n## Disclaimer\n\nPlease read this disclaimer carefully before using the large language model pr
…
ationPipeline\nfrom transformers import AutoModelForCausalLM, AutoTokenizer\n\ntokenizer = AutoTokenizer.from_pretrained(\"h2oai/h2ogpt-oasst1-512-20b\", padding_side=\"left\")\nmodel = AutoModelForCausalLM.from_pretrained(\"h2oai/h2ogpt-oasst1-512-20b\", torch_dtype=torch.bfloat16, device_map=\"auto\")\ngenerate_text = H2OTextGenerationPipeline(model=model, tokenizer=tokenizer)\n\nres = generate_text(\"Why is drinking water so healthy?\", max_new_tokens=100)\nprint(res[0][\"generated_text\"])\n```\n\n## Model Architecture\n\n```\nGPTNeoXForCausalLM(\n  (gpt_neox): GPTNeoXModel(\n    (embed_in): Embedding(50432, 6144)\n    (layers): ModuleList(\n      (0-43): 44 x GPTNeoXLayer(\n        (input_layernorm): LayerNorm((6144,), eps=1e-05, elementwise_affine=True)\n        (post_attention_layernorm): LayerNorm((6144,), eps=1e-05, elementwise_affine=True)\n        (attention): GPTNeoXAttention(\n          (rotary_emb): RotaryEmbedding()\n          (query_key_value): Linear(in_features=6144, out_features=18432, bias=True)\n          (dense): Linear(in_features=6144, out_features=6144, bias=True)\n        )\n        (mlp): GPTNeoXMLP(\n          (dense_h_to_4h): Linear(in_features=6144, out_features=24576, bias=True)\n          (dense_4h_to_h): Linear(in_features=24576, out_features=6144, bias=True)\n          (act): FastGELUActivation()\n        )\n      )\n    )\n    (final_layer_norm): LayerNorm((6144,), eps=1e-05, elementwise_affine=True)\n  )\n  (embed_out): Linear(in_features=6144, out_features=50432, bias=False)\n)\n```\n\n## Model Configuration\n\n```json\nGPTNeoXConfig {\n  \"_name_or_path\": \"h2oai/h2ogpt-oasst1-512-20b\",\n  \"architectures\": [\n    \"GPTNeoXForCausalLM\"\n  ],\n  \"attention_probs_dropout_prob\": 0,\n  \"bos_token_id\": 0,\n  \"custom_pipeline\": {\n    \"text-generation\": {\n      \"impl\": \"h2oai_pipeline.H2OTextGenerationPipeli
…
l.generate(\n    input_ids=inputs[\"input_ids\"],\n    attention_mask=inputs[\"attention_mask\"],\n    min_new_tokens=2,\n    max_new_tokens=256,\n)[0]\n\ntokens = tokens[inputs[\"input_ids\"].shape[1]:]\nanswer = tokenizer.decode(tokens, skip_special_tokens=True)\nprint(answer)\n```\n\n## Quantization and sharding\n\nYou can load the models using quantization by specifying ```load_in_8bit=True``` or ```load_in_4bit=True```. Also, sharding on multiple GPUs is possible by setting ```device_map=auto```.\n\n## Model Architecture\n\n```\nLlamaForCausalLM(\n  (model): LlamaModel(\n    (embed_tokens): Embedding(32000, 1536, padding_idx=0)\n    (layers): ModuleList(\n      (0-15): 16 x LlamaDecoderLayer(\n        (self_attn): LlamaSdpaAttention(\n          (q_proj): Linear(in_features=1536, out_features=1536, bias=False)\n          (k_proj): Linear(in_features=1536, out_features=768, bias=False)\n          (v_proj): Linear(in_features=1536, out_features=768, bias=False)\n          (o_proj): Linear(in_features=1536, out_features=1536, bias=False)\n          (rotary_emb): LlamaRotaryEmbedding()\n        )\n        (mlp): LlamaMLP(\n          (gate_proj): Linear(in_features=1536, out_features=4096, bias=False)\n          (up_proj): Linear(in_features=1536, out_features=4096, bias=False)\n          (down_proj): Linear(in_features=4096, out_features=1536, bias=False)\n          (act_fn): SiLU()\n        )\n        (input_layernorm): LlamaRMSNorm()\n        (post_attention_layernorm): LlamaRMSNorm()\n      )\n    )\n    (norm): LlamaRMSNorm()\n  )\n  (lm_head): Linear(in_features=1536, out_features=32000, bias=False)\n)\n```\n\n## Benchmarks\n\n### 🤗 Open LLM Leaderboard v1\n\n| Benchmark     |   acc_n  |\n|:--------------|:--------:|\n| Average       |   40.71  |\n| ARC-challenge |   39.25  |\n| Hellaswag     |   61.02  |\n| MMLU          |   26.33  |\n| TruthfulQA    |   39.96  |\n| Winogrande    |   61.72  |\n| GSM8K         |   16.00  |\n\n### MT-Bench\n\n`
…
 = tokenizer(prompt, return_tensors=\"pt\", add_special_tokens=False).to(\"cuda\")\n\n# generate configuration can be modified to your needs\ntokens = model.generate(\n    **inputs,\n    min_new_tokens=2,\n    max_new_tokens=1024,\n    do_sample=False,\n    num_beams=1,\n    temperature=float(0.3),\n    repetition_penalty=float(1.2),\n    renormalize_logits=True\n)[0]\n\ntokens = tokens[inputs[\"input_ids\"].shape[1]:]\nanswer = tokenizer.decode(tokens, skip_special_tokens=True)\nprint(answer)\n```\n\n## Model Architecture\n\n```\nRWForCausalLM(\n  (transformer): RWModel(\n    (word_embeddings): Embedding(65024, 8192)\n    (h): ModuleList(\n      (0-59): 60 x DecoderLayer(\n        (ln_attn): LayerNorm((8192,), eps=1e-05, elementwise_affine=True)\n        (ln_mlp): LayerNorm((8192,), eps=1e-05, elementwise_affine=True)\n        (self_attention): Attention(\n          (maybe_rotary): RotaryEmbedding()\n          (query_key_value): Linear(in_features=8192, out_features=9216, bias=False)\n          (dense): Linear(in_features=8192, out_features=8192, bias=False)\n          (attention_dropout): Dropout(p=0.0, inplace=False)\n        )\n        (mlp): MLP(\n          (dense_h_to_4h): Linear(in_features=8192, out_features=32768, bias=False)\n          (act): GELU(approximate='none')\n          (dense_4h_to_h): Linear(in_features=32768, out_features=8192, bias=False)\n        )\n      )\n    )\n    (ln_f): LayerNorm((8192,), eps=1e-05, elementwise_affine=True)\n  )\n  (lm_head): Linear(in_features=8192, out_features=65024, bias=False)\n)\n```\n\n## Model Configuration\n\nThis model was trained using H2O LLM Studio and with the configuration in [cfg.yaml](cfg.yaml). Visit [H2O LLM Studio](https://github.com/h2oai/h2o-llmstudio) to learn how to train your own large language models.\n\n## Disclaimer\n\nPlease read this disclaimer carefully before using the large language model prov
…
\n)\nmodel.cuda()\n\ninputs = tokenizer(\"The Danube is the second longest river in Europe\", return_tensors=\"pt\").to(model.device)\nres = model.generate(\n    **inputs,\n    max_new_tokens=32,\n    do_sample=False,\n)\nprint(tokenizer.decode(res[0], skip_special_tokens=True))\n```\n\n## Quantization and sharding\n\nYou can load the models using quantization by specifying ```load_in_8bit=True``` or ```load_in_4bit=True```. Also, sharding on multiple GPUs is possible by setting ```device_map=auto```.\n\n## Model Architecture\n\n```\nLlamaForCausalLM(\n  (model): LlamaModel(\n    (embed_tokens): Embedding(32000, 1536, padding_idx=0)\n    (layers): ModuleList(\n      (0-15): 16 x LlamaDecoderLayer(\n        (self_attn): LlamaSdpaAttention(\n          (q_proj): Linear(in_features=1536, out_features=1536, bias=False)\n          (k_proj): Linear(in_features=1536, out_features=768, bias=False)\n          (v_proj): Linear(in_features=1536, out_features=768, bias=False)\n          (o_proj): Linear(in_features=1536, out_features=1536, bias=False)\n          (rotary_emb): LlamaRotaryEmbedding()\n        )\n        (mlp): LlamaMLP(\n          (gate_proj): Linear(in_features=1536, out_features=4096, bias=False)\n          (up_proj): Linear(in_features=1536, out_features=4096, bias=False)\n          (down_proj): Linear(in_features=4096, out_features=1536, bias=False)\n          (act_fn): SiLU()\n        )\n        (input_layernorm): LlamaRMSNorm()\n        (post_attention_layernorm): LlamaRMSNorm()\n      )\n    )\n    (norm): LlamaRMSNorm()\n  )\n  (lm_head): Linear(in_features=1536, out_features=32000, bias=False)\n)\n```\n\n## Benchmarks\n\n### 🤗 Open LLM Leaderboard v1\n\n| Benchmark     |   acc_n  |\n|:--------------|:--------:|\n| Average       |   40.38  |\n| ARC-challenge |   40.61  |\n| Hellaswag     |   60.52  |\n| MMLU          |   25.72  |\n| TruthfulQA    |   37.67  |\n| Winogrande    |   62.19  |\n| GSM8K         |   15.54  |\n\n## Disclaimer\n\n
…
formers import AutoModelForCausalLM, AutoTokenizer\n\ntokenizer = AutoTokenizer.from_pretrained(\"h2oai/h2ogpt-oasst1-512-12b\", padding_side=\"left\")\nmodel = AutoModelForCausalLM.from_pretrained(\"h2oai/h2ogpt-oasst1-512-12b\", torch_dtype=torch.bfloat16, device_map=\"auto\")\ngenerate_text = H2OTextGenerationPipeline(model=model, tokenizer=tokenizer, prompt_type='human_bot')\n\nres = generate_text(\"Why is drinking water so healthy?\", max_new_tokens=100)\nprint(res[0][\"generated_text\"])\n```\n\n## Model Architecture\n\n```\nGPTNeoXForCausalLM(\n  (gpt_neox): GPTNeoXModel(\n    (embed_in): Embedding(50688, 5120)\n    (layers): ModuleList(\n      (0-35): 36 x GPTNeoXLayer(\n        (input_layernorm): LayerNorm((5120,), eps=1e-05, elementwise_affine=True)\n        (post_attention_layernorm): LayerNorm((5120,), eps=1e-05, elementwise_affine=True)\n        (attention): GPTNeoXAttention(\n          (rotary_emb): RotaryEmbedding()\n          (query_key_value): Linear(in_features=5120, out_features=15360, bias=True)\n          (dense): Linear(in_features=5120, out_features=5120, bias=True)\n        )\n        (mlp): GPTNeoXMLP(\n          (dense_h_to_4h): Linear(in_features=5120, out_features=20480, bias=True)\n          (dense_4h_to_h): Linear(in_features=20480, out_features=5120, bias=True)\n          (act): GELUActivation()\n        )\n      )\n    )\n    (final_layer_norm): LayerNorm((5120,), eps=1e-05, elementwise_affine=True)\n  )\n  (embed_out): Linear(in_features=5120, out_features=50688, bias=False)\n)\n```\n\n## Model Configuration\n\n```json\nGPTNeoXConfig {\n  \"_name_or_path\": \"h2oai/h2ogpt-oasst1-512-12b\",\n  \"architectures\": [\n    \"GPTNeoXForCausalLM\"\n  ],\n  \"bos_token_id\": 0,\n  \"classifier_dropout\": 0.1,\n  \"custom_pipelines\": {\n    \"text-generation\": {\n      \"impl\": \"h2oai_pipeline.H2OTextGenerationPipeline\",\n
…
s = tokenizer(prompt, return_tensors=\"pt\", add_special_tokens=False).to(\"cuda\")\n\n# generate configuration can be modified to your needs\ntokens = model.generate(\n    **inputs,\n    min_new_tokens=2,\n    max_new_tokens=256,\n    do_sample=False,\n    num_beams=1,\n    temperature=float(0.3),\n    repetition_penalty=float(1.2),\n    renormalize_logits=True\n)[0]\n\ntokens = tokens[inputs[\"input_ids\"].shape[1]:]\nanswer = tokenizer.decode(tokens, skip_special_tokens=True)\nprint(answer)\n```\n\n## Model Architecture\n\n```\nGPTNeoXForCausalLM(\n  (gpt_neox): GPTNeoXModel(\n    (embed_in): Embedding(50304, 2048)\n    (layers): ModuleList(\n      (0-15): 16 x GPTNeoXLayer(\n        (input_layernorm): LayerNorm((2048,), eps=1e-05, elementwise_affine=True)\n        (post_attention_layernorm): LayerNorm((2048,), eps=1e-05, elementwise_affine=True)\n        (attention): GPTNeoXAttention(\n          (rotary_emb): RotaryEmbedding()\n          (query_key_value): Linear(in_features=2048, out_features=6144, bias=True)\n          (dense): Linear(in_features=2048, out_features=2048, bias=True)\n        )\n        (mlp): GPTNeoXMLP(\n          (dense_h_to_4h): Linear(in_features=2048, out_features=8192, bias=True)\n          (dense_4h_to_h): Linear(in_features=8192, out_features=2048, bias=True)\n          (act): GELUActivation()\n        )\n      )\n    )\n    (final_layer_norm): LayerNorm((2048,), eps=1e-05, elementwise_affine=True)\n  )\n  (embed_out): Linear(in_features=2048, out_features=50304, bias=False)\n)\n```\n\n## Model Configuration\n\nThis model was trained using H2O LLM Studio and with the configuration in [cfg.yaml](cfg.yaml). Visit [H2O LLM Studio](https://github.com/h2oai/h2o-llmstudio) to learn how to train your own large language models.\n\n\n## Model Validation\n\nModel validation results using [EleutherAI lm-evaluation-harness](https:
…
s = tokenizer(prompt, return_tensors=\"pt\", add_special_tokens=False).to(\"cuda\")\n\n# generate configuration can be modified to your needs\ntokens = model.generate(\n    **inputs,\n    min_new_tokens=2,\n    max_new_tokens=256,\n    do_sample=False,\n    num_beams=1,\n    temperature=float(0.3),\n    repetition_penalty=float(1.2),\n    renormalize_logits=True\n)[0]\n\ntokens = tokens[inputs[\"input_ids\"].shape[1]:]\nanswer = tokenizer.decode(tokens, skip_special_tokens=True)\nprint(answer)\n```\n\n## Model Architecture\n\n```\nRWForCausalLM(\n  (transformer): RWModel(\n    (word_embeddings): Embedding(65024, 4544)\n    (h): ModuleList(\n      (0-31): 32 x DecoderLayer(\n        (input_layernorm): LayerNorm((4544,), eps=1e-05, elementwise_affine=True)\n        (self_attention): Attention(\n          (maybe_rotary): RotaryEmbedding()\n          (query_key_value): Linear(in_features=4544, out_features=4672, bias=False)\n          (dense): Linear(in_features=4544, out_features=4544, bias=False)\n          (attention_dropout): Dropout(p=0.0, inplace=False)\n        )\n        (mlp): MLP(\n          (dense_h_to_4h): Linear(in_features=4544, out_features=18176, bias=False)\n          (act): GELU(approximate='none')\n          (dense_4h_to_h): Linear(in_features=18176, out_features=4544, bias=False)\n        )\n      )\n    )\n    (ln_f): LayerNorm((4544,), eps=1e-05, elementwise_affine=True)\n  )\n  (lm_head): Linear(in_features=4544, out_features=65024, bias=False)\n)\n```\n\n## Model Configuration\n\n\n\n## Model Validation\n\nModel validation results using [EleutherAI lm-evaluation-harness](https://github.com/EleutherAI/lm-evaluation-harness).\n\n```bash\nCUDA_VISIBLE_DEVICES=0 python main.py --model hf-causal-experimental --model_args pretrained=<path_to_local_folder> --tasks openbookqa,arc_easy,winogrande
…
tokens=256,\n    do_sample=False,\n    num_beams=1,\n    temperature=float(0.3),\n    repetition_penalty=float(1.2),\n    renormalize_logits=True\n)[0]\n\ntokens = tokens[inputs[\"input_ids\"].shape[1]:]\nanswer = tokenizer.decode(tokens, skip_special_tokens=True)\nprint(answer)\n```\n\n## Quantization and sharding\n\nYou can load the models using quantization by specifying ```load_in_8bit=True``` or ```load_in_4bit=True```. Also, sharding on multiple GPUs is possible by setting ```device_map=auto```.\n\n## Model Architecture\n\n```\nLlamaForCausalLM(\n  (model): LlamaModel(\n    (embed_tokens): Embedding(32000, 5120, padding_idx=0)\n    (layers): ModuleList(\n      (0-39): 40 x LlamaDecoderLayer(\n        (self_attn): LlamaAttention(\n          (q_proj): Linear(in_features=5120, out_features=5120, bias=False)\n          (k_proj): Linear(in_features=5120, out_features=5120, bias=False)\n          (v_proj): Linear(in_features=5120, out_features=5120, bias=False)\n          (o_proj): Linear(in_features=5120, out_features=5120, bias=False)\n          (rotary_emb): LlamaRotaryEmbedding()\n        )\n        (mlp): LlamaMLP(\n          (gate_proj): Linear(in_features=5120, out_features=13824, bias=False)\n          (up_proj): Linear(in_features=5120, out_features=13824, bias=False)\n          (down_proj): Linear(in_features=13824, out_features=5120, bias=False)\n          (act_fn): SiLUActivation()\n        )\n        (input_layernorm): LlamaRMSNorm()\n        (post_attention_layernorm): LlamaRMSNorm()\n      )\n    )\n    (norm): LlamaRMSNorm()\n  )\n  (lm_head): Linear(in_features=5120, out_features=32000, bias=False)\n)\n```\n\n## Model Configuration\n\nThis model was trained using H2O LLM Studio and with the configuration in [cfg.yaml](cfg.yaml). Visit [H2O LLM Studio](https://github.com/h2oai/h2o-llmstudio) to learn how to train your own large language models.\n\n\n## Disclaimer\n\nPlease read this disclaimer carefully before using the large language model pr
…
\n)\nmodel.cuda()\n\ninputs = tokenizer(\"The Danube is the second longest river in Europe\", return_tensors=\"pt\").to(model.device)\nres = model.generate(\n    **inputs,\n    max_new_tokens=32,\n    do_sample=False,\n)\nprint(tokenizer.decode(res[0], skip_special_tokens=True))\n```\n\n## Quantization and sharding\n\nYou can load the models using quantization by specifying ```load_in_8bit=True``` or ```load_in_4bit=True```. Also, sharding on multiple GPUs is possible by setting ```device_map=auto```.\n\n## Model Architecture\n\n```\nLlamaForCausalLM(\n  (model): LlamaModel(\n    (embed_tokens): Embedding(32000, 3840, padding_idx=0)\n    (layers): ModuleList(\n      (0-23): 24 x LlamaDecoderLayer(\n        (self_attn): LlamaSdpaAttention(\n          (q_proj): Linear(in_features=3840, out_features=3840, bias=False)\n          (k_proj): Linear(in_features=3840, out_features=960, bias=False)\n          (v_proj): Linear(in_features=3840, out_features=960, bias=False)\n          (o_proj): Linear(in_features=3840, out_features=3840, bias=False)\n          (rotary_emb): LlamaRotaryEmbedding()\n        )\n        (mlp): LlamaMLP(\n          (gate_proj): Linear(in_features=3840, out_features=10240, bias=False)\n          (up_proj): Linear(in_features=3840, out_features=10240, bias=False)\n          (down_proj): Linear(in_features=10240, out_features=3840, bias=False)\n          (act_fn): SiLU()\n        )\n        (input_layernorm): LlamaRMSNorm()\n        (post_attention_layernorm): LlamaRMSNorm()\n      )\n    )\n    (norm): LlamaRMSNorm()\n  )\n  (lm_head): Linear(in_features=3840, out_features=32000, bias=False)\n)\n```\n\n## Benchmarks\n\n### 🤗 Open LLM Leaderboard v1\n\n| Benchmark     |   acc_n  |\n|:--------------|:--------:|\n| Average       |   58.85  |\n| ARC-challenge |   59.04  |\n| Hellaswag     |   79.84  |\n| MMLU          |   55.18  |\n| TruthfulQA    |   44.77  |\n| Winogrande    |   75.14  |\n| GSM8K         |   39.12  |\n\n## Disclaimer\n\n
…
port AutoModelForCausalLM, AutoTokenizer\n\ntokenizer = AutoTokenizer.from_pretrained(\"h2oai/h2ogpt-oig-oasst1-512-6_9b\", padding_side=\"left\")\nmodel = AutoModelForCausalLM.from_pretrained(\"h2oai/h2ogpt-oig-oasst1-512-6_9b\", torch_dtype=torch.bfloat16, device_map=\"auto\")\ngenerate_text = H2OTextGenerationPipeline(model=model, tokenizer=tokenizer, prompt_type='human_bot')\n\nres = generate_text(\"Why is drinking water so healthy?\", max_new_tokens=100)\nprint(res[0][\"generated_text\"])\n```\n\n## Model Architecture\n\n```\nGPTNeoXForCausalLM(\n  (gpt_neox): GPTNeoXModel(\n    (embed_in): Embedding(50432, 4096)\n    (layers): ModuleList(\n      (0-31): 32 x GPTNeoXLayer(\n        (input_layernorm): LayerNorm((4096,), eps=1e-05, elementwise_affine=True)\n        (post_attention_layernorm): LayerNorm((4096,), eps=1e-05, elementwise_affine=True)\n        (attention): GPTNeoXAttention(\n          (rotary_emb): RotaryEmbedding()\n          (query_key_value): Linear(in_features=4096, out_features=12288, bias=True)\n          (dense): Linear(in_features=4096, out_features=4096, bias=True)\n        )\n        (mlp): GPTNeoXMLP(\n          (dense_h_to_4h): Linear(in_features=4096, out_features=16384, bias=True)\n          (dense_4h_to_h): Linear(in_features=16384, out_features=4096, bias=True)\n          (act): GELUActivation()\n        )\n      )\n    )\n    (final_layer_norm): LayerNorm((4096,), eps=1e-05, elementwise_affine=True)\n  )\n  (embed_out): Linear(in_features=4096, out_features=50432, bias=False)\n)\n```\n\n## Model Configuration\n\n```json\nGPTNeoXConfig {\n  \"_name_or_path\": \"h2oai/h2ogpt-oig-oasst1-512-6_9b\",\n  \"architectures\": [\n    \"GPTNeoXForCausalLM\"\n  ],\n  \"bos_token_id\": 0,\n  \"custom_pipeline\": {\n    \"text-generation\": {\n      \"impl\": \"h2oai_pipeline.H2OTextGenerationPipeline\",\n      \"pt\": \"AutoModelFor
…
kenizer, AutoModelForCausalLM\n\ntokenizer = AutoTokenizer.from_pretrained(\"CobraMamba/mamba-gpt-3b-v3\")\nmodel = AutoModelForCausalLM.from_pretrained(\"CobraMamba/mamba-gpt-3b-v3\", trust_remote_code=True, torch_dtype=torch.float16)\n\ninput_context = \"Your text here\"\ninput_ids = tokenizer.encode(input_context, return_tensors=\"pt\")\noutput = model.generate(input_ids, max_length=128, temperature=0.7)\noutput_text = tokenizer.decode(output[0], skip_special_tokens=True)\nprint(output_text)\n\n```\n\n## Model Architecture\n\n```\nLlamaForCausalLM(\n  (model): LlamaModel(\n    (embed_tokens): Embedding(32000, 4096, padding_idx=0)\n    (layers): ModuleList(\n      (0-31): 32 x LlamaDecoderLayer(\n        (self_attn): LlamaAttention(\n          (q_proj): Linear(in_features=4096, out_features=4096, bias=False)\n          (k_proj): Linear(in_features=4096, out_features=4096, bias=False)\n          (v_proj): Linear(in_features=4096, out_features=4096, bias=False)\n          (o_proj): Linear(in_features=4096, out_features=4096, bias=False)\n          (rotary_emb): LlamaRotaryEmbedding()\n        )\n        (mlp): LlamaMLP(\n          (gate_proj): Linear(in_features=4096, out_features=11008, bias=False)\n          (down_proj): Linear(in_features=11008, out_features=4096, bias=False)\n          (up_proj): Linear(in_features=4096, out_features=11008, bias=False)\n          (act_fn): SiLUActivation()\n        )\n        (input_layernorm): LlamaRMSNorm()\n        (post_attention_layernorm): LlamaRMSNorm()\n      )\n    )\n    (norm): LlamaRMSNorm()\n  )\n  (lm_head): Linear(in_features=4096, out_features=32000, bias=False)\n)\n```\n\n## Citation\n\nIf this work is helpful, please kindly cite as:\n\n```bibtex\n@Misc{mamba-gpt-3b-v3,\n  title = {Mamba-GPT-3b-v3},\n  author = {chiliu},\n  howpublished = {\\url{https://huggingface.co/CobraMamba/mamba-gpt-3b-v3}},\n  year = {2023}\n}\n```\n\n\n## Disclaimer\n\nPlease read this disclaimer carefully before using the large l
…
import AutoModelForCausalLM, AutoTokenizer\n\ntokenizer = AutoTokenizer.from_pretrained(\"h2oai/h2ogpt-oasst1-falcon-40b\", padding_side=\"left\")\nmodel = AutoModelForCausalLM.from_pretrained(\"h2oai/h2ogpt-oasst1-falcon-40b\", torch_dtype=torch.bfloat16, device_map=\"auto\")\ngenerate_text = H2OTextGenerationPipeline(model=model, tokenizer=tokenizer, prompt_type=\"human_bot\")\n\nres = generate_text(\"Why is drinking water so healthy?\", max_new_tokens=100)\nprint(res[0][\"generated_text\"])\n```\n\n## Model Architecture\n\n```\nRWForCausalLM(\n  (transformer): RWModel(\n    (word_embeddings): Embedding(65024, 8192)\n    (h): ModuleList(\n      (0-59): 60 x DecoderLayer(\n        (ln_attn): LayerNorm((8192,), eps=1e-05, elementwise_affine=True)\n        (ln_mlp): LayerNorm((8192,), eps=1e-05, elementwise_affine=True)\n        (self_attention): Attention(\n          (maybe_rotary): RotaryEmbedding()\n          (query_key_value): Linear(in_features=8192, out_features=9216, bias=False)\n          (dense): Linear(in_features=8192, out_features=8192, bias=False)\n          (attention_dropout): Dropout(p=0.0, inplace=False)\n        )\n        (mlp): MLP(\n          (dense_h_to_4h): Linear(in_features=8192, out_features=32768, bias=False)\n          (act): GELU(approximate='none')\n          (dense_4h_to_h): Linear(in_features=32768, out_features=8192, bias=False)\n        )\n      )\n    )\n    (ln_f): LayerNorm((8192,), eps=1e-05, elementwise_affine=True)\n  )\n  (lm_head): Linear(in_features=8192, out_features=65024, bias=False)\n)\n```\n\n## Model Configuration\n\n```json\nRWConfig {\n  \"_name_or_path\": \"h2oai/h2ogpt-oasst1-falcon-40b\",\n  \"alibi\": false,\n  \"apply_residual_connection_post_layernorm\": false,\n  \"architectures\": [\n    \"RWForCausalLM\"\n  ],\n  \"attention_dropout\": 0.0,\n  \"auto_map\": {\n    \"AutoConfig\": \"tiiuae/falcon-40b--configuration
…
uts = tokenizer(prompt, return_tensors=\"pt\", add_special_tokens=False).to(\"cuda\")\n\n# generate configuration can be modified to your needs\ntokens = model.generate(\n    **inputs,\n    min_new_tokens=2,\n    max_new_tokens=1024,\n    do_sample=False,\n    num_beams=1,\n    temperature=float(0.3),\n    repetition_penalty=float(1.2),\n    renormalize_logits=True\n)[0]\n\ntokens = tokens[inputs[\"input_ids\"].shape[1]:]\nanswer = tokenizer.decode(tokens, skip_special_tokens=True)\nprint(answer)\n```\n\n## Model Architecture\n\n```\nLlamaForCausalLM(\n  (model): LlamaModel(\n    (embed_tokens): Embedding(32000, 4096, padding_idx=0)\n    (layers): ModuleList(\n      (0-31): 32 x LlamaDecoderLayer(\n        (self_attn): LlamaAttention(\n          (q_proj): Linear(in_features=4096, out_features=4096, bias=False)\n          (k_proj): Linear(in_features=4096, out_features=4096, bias=False)\n          (v_proj): Linear(in_features=4096, out_features=4096, bias=False)\n          (o_proj): Linear(in_features=4096, out_features=4096, bias=False)\n          (rotary_emb): LlamaRotaryEmbedding()\n        )\n        (mlp): LlamaMLP(\n          (gate_proj): Linear(in_features=4096, out_features=11008, bias=False)\n          (down_proj): Linear(in_features=11008, out_features=4096, bias=False)\n          (up_proj): Linear(in_features=4096, out_features=11008, bias=False)\n          (act_fn): SiLUActivation()\n        )\n        (input_layernorm): LlamaRMSNorm()\n        (post_attention_layernorm): LlamaRMSNorm()\n      )\n    )\n    (norm): LlamaRMSNorm()\n  )\n  (lm_head): Linear(in_features=4096, out_features=32000, bias=False)\n)\n```\n\n## Citation\n\nIf this work is helpful, please kindly cite as:\n\n```bibtex\n@Misc{mamba-gpt-3b-v2,\n  title = {Mamba-GPT-3b-v2},\n  author = {chiliu},\n  howpublished = {\\url{https://huggingface.co/CobraMamba/mamba-gpt-3b-v2}},\n  year = {2023}\n}\n```\n\n\n## Disclaimer\n\nPlease read this disclaimer carefully before using the large l
…
ame)\nmodel.cuda().eval()\ninputs = tokenizer(prompt, return_tensors=\"pt\", add_special_tokens=False).to(\"cuda\")\n\n# generate configuration can be modified to your needs\ntokens = model.generate(\n    **inputs,\n    min_new_tokens=2,\n    max_new_tokens=256,\n    do_sample=False,\n    num_beams=2,\n    temperature=float(0.3),\n    repetition_penalty=float(1.2),\n)[0]\n\ntokens = tokens[inputs[\"input_ids\"].shape[1]:]\nanswer = tokenizer.decode(tokens, skip_special_tokens=True)\nprint(answer)\n```\n\n## Model Architecture\n\n```\nLlamaForCausalLM(\n  (model): LlamaModel(\n    (embed_tokens): Embedding(32000, 4096, padding_idx=0)\n    (layers): ModuleList(\n      (0-31): 32 x LlamaDecoderLayer(\n        (self_attn): LlamaAttention(\n          (q_proj): Linear(in_features=4096, out_features=4096, bias=False)\n          (k_proj): Linear(in_features=4096, out_features=4096, bias=False)\n          (v_proj): Linear(in_features=4096, out_features=4096, bias=False)\n          (o_proj): Linear(in_features=4096, out_features=4096, bias=False)\n          (rotary_emb): LlamaRotaryEmbedding()\n        )\n        (mlp): LlamaMLP(\n          (gate_proj): Linear(in_features=4096, out_features=11008, bias=False)\n          (down_proj): Linear(in_features=11008, out_features=4096, bias=False)\n          (up_proj): Linear(in_features=4096, out_features=11008, bias=False)\n          (act_fn): SiLUActivation()\n        )\n        (input_layernorm): LlamaRMSNorm()\n        (post_attention_layernorm): LlamaRMSNorm()\n      )\n    )\n    (norm): LlamaRMSNorm()\n  )\n  (lm_head): Linear(in_features=4096, out_features=32000, bias=False)\n)\n```\n\n## Model Configuration\n\nThis model was trained using H2O LLM Studio and with the configuration in [cfg.yaml](cfg.yaml). Visit [H2O LLM Studio](https://github.com/h2oai/h2o-llmstudio) to learn how to train your own large language models.\n\n## Disclaimer\n\nPlease read this disclaimer carefully before using the large language model prov
…
)\nmodel.cuda().eval()\ninputs = tokenizer(prompt, return_tensors=\"pt\", add_special_tokens=False).to(\"cuda\")\n\n# generate configuration can be modified to your needs\ntokens = model.generate(\n    **inputs,\n    min_new_tokens=2,\n    max_new_tokens=256,\n    do_sample=False,\n    num_beams=2,\n    temperature=float(0.3),\n    repetition_penalty=float(1.2),\n)[0]\n\ntokens = tokens[inputs[\"input_ids\"].shape[1]:]\nanswer = tokenizer.decode(tokens, skip_special_tokens=True)\nprint(answer)\n```\n\n## Model Architecture\n\n```\nGPTNeoXForCausalLM(\n  (gpt_neox): GPTNeoXModel(\n    (embed_in): Embedding(50432, 6144)\n    (layers): ModuleList(\n      (0-43): 44 x GPTNeoXLayer(\n        (input_layernorm): LayerNorm((6144,), eps=1e-05, elementwise_affine=True)\n        (post_attention_layernorm): LayerNorm((6144,), eps=1e-05, elementwise_affine=True)\n        (attention): GPTNeoXAttention(\n          (rotary_emb): RotaryEmbedding()\n          (query_key_value): Linear(in_features=6144, out_features=18432, bias=True)\n          (dense): Linear(in_features=6144, out_features=6144, bias=True)\n        )\n        (mlp): GPTNeoXMLP(\n          (dense_h_to_4h): Linear(in_features=6144, out_features=24576, bias=True)\n          (dense_4h_to_h): Linear(in_features=24576, out_features=6144, bias=True)\n          (act): FastGELUActivation()\n        )\n      )\n    )\n    (final_layer_norm): LayerNorm((6144,), eps=1e-05, elementwise_affine=True)\n  )\n  (embed_out): Linear(in_features=6144, out_features=50432, bias=False)\n)\n```\n\n## Model Configuration\n\nThis model was trained using H2O LLM Studio and with the configuration in [cfg.yaml](cfg.yaml). Visit [H2O LLM Studio](https://github.com/h2oai/h2o-llmstudio) to learn how to train your own large language models.\n\n\n## Model Validation\n\nModel validation results using [EleutherAI lm-evaluation-harness](https:
…
uts = tokenizer(prompt, return_tensors=\"pt\", add_special_tokens=False).to(\"cuda\")\n\n# generate configuration can be modified to your needs\ntokens = model.generate(\n    **inputs,\n    min_new_tokens=2,\n    max_new_tokens=1024,\n    do_sample=False,\n    num_beams=1,\n    temperature=float(0.3),\n    repetition_penalty=float(1.2),\n    renormalize_logits=True\n)[0]\n\ntokens = tokens[inputs[\"input_ids\"].shape[1]:]\nanswer = tokenizer.decode(tokens, skip_special_tokens=True)\nprint(answer)\n```\n\n## Model Architecture\n\n```\nLlamaForCausalLM(\n  (model): LlamaModel(\n    (embed_tokens): Embedding(51200, 4096, padding_idx=0)\n    (layers): ModuleList(\n      (0-31): 32 x LlamaDecoderLayer(\n        (self_attn): LlamaAttention(\n          (q_proj): Linear(in_features=4096, out_features=4096, bias=False)\n          (k_proj): Linear(in_features=4096, out_features=4096, bias=False)\n          (v_proj): Linear(in_features=4096, out_features=4096, bias=False)\n          (o_proj): Linear(in_features=4096, out_features=4096, bias=False)\n          (rotary_emb): LlamaRotaryEmbedding()\n        )\n        (mlp): LlamaMLP(\n          (gate_proj): Linear(in_features=4096, out_features=11008, bias=False)\n          (down_proj): Linear(in_features=11008, out_features=4096, bias=False)\n          (up_proj): Linear(in_features=4096, out_features=11008, bias=False)\n          (act_fn): SiLUActivation()\n        )\n        (input_layernorm): LlamaRMSNorm()\n        (post_attention_layernorm): LlamaRMSNorm()\n      )\n    )\n    (norm): LlamaRMSNorm()\n  )\n  (lm_head): Linear(in_features=4096, out_features=51200, bias=False)\n)\n```\n\n## Model Configuration\n\nThis model was trained using H2O LLM Studio and with the configuration in [cfg.yaml](cfg.yaml). Visit [H2O LLM Studio](https://github.com/h2oai/h2o-llmstudio) to learn how to train your own large language models.\n\n## Disclaimer\n\nPlease read this disclaimer carefully before using the large language model prov
…
delForCausalLM, AutoTokenizer\n\ntokenizer = AutoTokenizer.from_pretrained(\"h2oai/h2ogpt-research-oasst1-llama-65b\", padding_side=\"left\")\nmodel = AutoModelForCausalLM.from_pretrained(\"h2oai/h2ogpt-research-oasst1-llama-65b\", torch_dtype=torch.bfloat16, device_map=\"auto\")\ngenerate_text = H2OTextGenerationPipeline(model=model, tokenizer=tokenizer, prompt_type=\"human_bot\")\n\nres = generate_text(\"Why is drinking water so healthy?\", max_new_tokens=100)\nprint(res[0][\"generated_text\"])\n```\n\n## Model Architecture\n\n```\nLlamaForCausalLM(\n  (model): LlamaModel(\n    (embed_tokens): Embedding(32000, 8192, padding_idx=31999)\n    (layers): ModuleList(\n      (0-79): 80 x LlamaDecoderLayer(\n        (self_attn): LlamaAttention(\n          (q_proj): Linear(in_features=8192, out_features=8192, bias=False)\n          (k_proj): Linear(in_features=8192, out_features=8192, bias=False)\n          (v_proj): Linear(in_features=8192, out_features=8192, bias=False)\n          (o_proj): Linear(in_features=8192, out_features=8192, bias=False)\n          (rotary_emb): LlamaRotaryEmbedding()\n        )\n        (mlp): LlamaMLP(\n          (gate_proj): Linear(in_features=8192, out_features=22016, bias=False)\n          (down_proj): Linear(in_features=22016, out_features=8192, bias=False)\n          (up_proj): Linear(in_features=8192, out_features=22016, bias=False)\n          (act_fn): SiLUActivation()\n        )\n        (input_layernorm): LlamaRMSNorm()\n        (post_attention_layernorm): LlamaRMSNorm()\n      )\n    )\n    (norm): LlamaRMSNorm()\n  )\n  (lm_head): Linear(in_features=8192, out_features=32000, bias=False)\n)\n```\n\n## Model Configuration\n\n```json\nLlamaConfig {\n  \"_name_or_path\": \"h2oai/h2ogpt-research-oasst1-llama-65b\",\n  \"architectures\": [\n    \"LlamaForCausalLM\"\n  ],\n  \"bos_token_id\": 0,\n  \"custom_pipelines\": {\n    \"text-generation\": {\n      \"impl\": \"h2oai_pipeline.H2OTextGenerationPipeline\",\n      \"pt\": \"AutoModel
…
